Python model/tflite_model.tflite (tflite, 101796 bytes, 52 tensors)

sequential_11/dense_195/BiasAdd/ReadVariableOp/resource f4 [30]
0	0x3bc26942	0.005932958
1	0xbc596cab	-0.013270537
2	0xbc21be83	-0.009872082
3	0xbc0a38fe	-0.00843644
4	0x00000000	0.0
5	0x00000000	0.0
6	0x00000000	0.0
7	0x00000000	0.0
8	0x00000000	0.0
9	0xbc13a3d3	-0.009011227
10	0xbc6fd459	-0.01463803
11	0x00000000	0.0
12	0x00000000	0.0
13	0x00000000	0.0
14	0x00000000	0.0
15	0x00000000	0.0
16	0xbd8d510e	-0.069002256
17	0x3b9f20fd	0.0048562274
18	0x00000000	0.0
19	0x00000000	0.0
20	0x00000000	0.0
21	0x00000000	0.0
22	0x00000000	0.0
23	0x00000000	0.0
24	0x00000000	0.0
25	0x00000000	0.0
26	0xbc4dd32e	-0.012562556
27	0x00000000	0.0
28	0xbd8188f1	-0.063249476
29	0xbc0ba340	-0.008522809

sequential_11/dense_196/BiasAdd/ReadVariableOp/resource f4 [30]
0	0xbb588098	-0.0033035632
1	0xbcbf164c	-0.023326062
2	0x00000000	0.0
3	0xbc59ea31	-0.0133004645
4	0xbd39761e	-0.04527866
5	0x00000000	0.0
6	0xbc94fb30	-0.018186182
7	0xbd022ea5	-0.031782765
8	0x00000000	0.0
9	0xbcace3a0	-0.021104634
10	0xbcd1e63d	-0.025622481
11	0xbd3e220e	-0.046419196
12	0xbd5b9b02	-0.053614624
13	0xbceebe91	-0.029143604
14	0xbc85012a	-0.016235907
15	0x3b835ae1	0.0040086363
16	0x00000000	0.0
17	0x00000000	0.0
18	0x00000000	0.0
19	0x00000000	0.0
20	0xbbf1f289	-0.007383649
21	0x00000000	0.0
22	0xbd7d5822	-0.061851628
23	0xbb2f3752	-0.0026735854
24	0x00000000	0.0
25	0x00000000	0.0
26	0xbd5f7613	-0.054555964
27	0x00000000	0.0
28	0x00000000	0.0
29	0x00000000	0.0

sequential_11/dense_197/BiasAdd/ReadVariableOp/resource f4 [30]
0	0xbb8a8060	-0.0042267293
1	0xbd7fdea8	-0.0624682
2	0xbbc8a3b9	-0.006123033
3	0xbc9e7192	-0.019341264
4	0xbc85971c	-0.016307406
5	0xbc95982a	-0.018261034
6	0x00000000	0.0
7	0xbbc8729a	-0.006117177
8	0x00000000	0.0
9	0x00000000	0.0
10	0xbb255821	-0.002522953
11	0xbc15864a	-0.009126255
12	0x3c085ad2	0.0083224345
13	0x00000000	0.0
14	0xbcc0c8f5	-0.023533324
15	0xbcb9f275	-0.02269862
16	0xbc2519c8	-0.0100769475
17	0x00000000	0.0
18	0xbc5a872b	-0.013337891
19	0xbcc37b20	-0.023862422
20	0x00000000	0.0
21	0xbc08b286	-0.008343345
22	0xbc645579	-0.013936394
23	0xbd080fa3	-0.033218037
24	0x00000000	0.0
25	0xbd1f069b	-0.03882466
26	0xba71ce63	-0.00092241744
27	0xbc8dc72e	-0.01730689
28	0x3c530165	0.01287875
29	0xbcce6898	-0.025196359

sequential_11/dense_198/BiasAdd/ReadVariableOp/resource f4 [30]
0	0xbc8e0976	-0.017338496
1	0xba8813b6	-0.0010381851
2	0xbd0c78ac	-0.03429477
3	0xbca69d36	-0.020338636
4	0x00000000	0.0
5	0xbc62141a	-0.013798738
6	0xbd00e4ba	-0.03146813
7	0xbcea6226	-0.028611254
8	0x3a159281	0.000570573
9	0xbd5b8164	-0.053590193
10	0x3cb0ae9a	0.021567632
11	0xbc5f7872	-0.013639556
12	0xbc0a7036	-0.008449605
13	0x00000000	0.0
14	0xbc282b67	-0.010264254
15	0xbd8615a0	-0.065470934
16	0xbc82bb99	-0.015958594
17	0x00000000	0.0
18	0xbc2e7203	-0.0106473
19	0xbb1e89ae	-0.002419095
20	0x3b95d7ae	0.00457283
21	0x3afdb7ee	0.0019357183
22	0xbcd81d82	-0.026381258
23	0x00000000	0.0
24	0x00000000	0.0
25	0x3cacb559	0.021082567
26	0xbda07650	-0.07835066
27	0x00000000	0.0
28	0xbd4c089d	-0.0498129
29	0x3d161f78	0.036651105

sequential_11/dense_199/BiasAdd/ReadVariableOp/resource f4 [30]
0	0x3bd960e2	0.006633864
1	0xbd9c15a7	-0.07621317
2	0x3d1045b8	0.03522274
3	0xbc33e1e0	-0.010979146
4	0xbd103cd8	-0.035214275
5	0xbcabdddd	-0.020979816
6	0xbd8843a8	-0.066535294
7	0x3a9ffde5	0.0012206404
8	0xbca5202e	-0.020156946
9	0xbd128fb3	-0.035781574
10	0xbc1316e7	-0.008977628
11	0xbd12c377	-0.03583094
12	0x3c9440d6	0.018097322
13	0xbd039322	-0.03212274
14	0xbd8b1b23	-0.06792285
15	0xbe1018bf	-0.1407194
16	0xbd822d50	-0.06356299
17	0xbd14ef1f	-0.036360856
18	0xbd095871	-0.03353161
19	0x3d6aff04	0.057372108
20	0xbd345b2d	-0.044032265
21	0x3d07de25	0.033170838
22	0xbdce0223	-0.10059001
23	0x3d06cbda	0.03290925
24	0xbc31bf71	-0.010848866
25	0x3c5a88f9	0.013338321
26	0x3c758895	0.014986177
27	0xbc977ea8	-0.018493012
28	0xbc71656b	-0.014733653
29	0xbcb9bcfd	-0.022673124

sequential_11/dense_200/BiasAdd/ReadVariableOp/resource f4 [30]
0	0xbd71024b	-0.058840077
1	0xbd3fb4f0	-0.046803415
2	0xbc9086d8	-0.017642424
3	0xbcd613b9	-0.026132451
4	0xbcf52b4e	-0.029927876
5	0x3d99a258	0.07501668
6	0x00000000	0.0
7	0xbdb798b1	-0.089646704
8	0xbbaf61fc	-0.005352257
9	0x3d2df868	0.042473227
10	0x3cb73371	0.022363396
11	0xbd4b4ea9	-0.049635563
12	0xbce68d0f	-0.028143434
13	0xbdd0c947	-0.101946406
14	0x3d12d282	0.035845287
15	0xbcc767df	-0.024341522
16	0x3b8f5ab4	0.0043748263
17	0xbc208af2	-0.009798752
18	0x3c13357f	0.008984922
19	0xbc4a545f	-0.012349217
20	0x3c84b836	0.01620112
21	0x3c9b536e	0.01896068
22	0xbd1ba438	-0.037998408
23	0x3cff6423	0.031175679
24	0xbcf3eee3	-0.029776996
25	0xbd9cf93e	-0.07664727
26	0x3d4ed268	0.050493628
27	0x3d1a18b9	0.037621234
28	0xbd0691d6	-0.032853924
29	0xbd207410	-0.039173186

sequential_11/dense_201/BiasAdd/ReadVariableOp/resource f4 [30]
0	0xbc8726bd	-0.016497964
1	0xbd3aec92	-0.045635767
2	0x3c9a40f8	0.018829808
3	0xbd4e4c85	-0.050365943
4	0xbd07e535	-0.033177573
5	0xbdc27afe	-0.09496115
6	0x3d42d303	0.047564518
7	0x3bb45dfb	0.0055043674
8	0xbcba5c0e	-0.022748973
9	0x3d031706	0.03200438
10	0xbbd990be	-0.006639569
11	0xbd68ccf0	-0.05683607
12	0xbc324ec4	-0.010883037
13	0xbd19e7ff	-0.037574764
14	0xbd35a972	-0.04435105
15	0xbc8be91b	-0.017078927
16	0x3d9852c6	0.07437663
17	0xbd4ffb1f	-0.050776597
18	0xbc29b8e5	-0.010359024
19	0x3be7a183	0.0070688142
20	0xbca6e7b5	-0.020374158
21	0xbcd01fff	-0.025405882
22	0xbcd07518	-0.02544646
23	0xbc209644	-0.009801451
24	0x3cfa3f26	0.03054769
25	0xbcc7709d	-0.02434569
26	0x3d3db684	0.04631664
27	0xbd07e7a3	-0.03317989
28	0xbc6c0cbc	-0.014407333
29	0x3d1a737b	0.037707787

sequential_11/dense_202/BiasAdd/ReadVariableOp/resource f4 [30]
0	0x00000000	0.0
1	0xbc7c055d	-0.015382138
2	0xbc740dc6	-0.014895862
3	0xbbedc80d	-0.007256514
4	0xbd113421	-0.035450105
5	0xbb12459f	-0.002231933
6	0xbce9d9ca	-0.028546233
7	0xbc9c1814	-0.01905445
8	0xbced8bed	-0.028997386
9	0x3ca62f4f	0.02028623
10	0x3bbb64bc	0.0057187956
11	0xbd24a032	-0.040191837
12	0x3cf97ef5	0.030456046
13	0x3b118b1f	0.0022208167
14	0xbd8fefa2	-0.07028128
15	0xbc793062	-0.015209289
16	0xbc715804	-0.014730457
17	0xbcba7f92	-0.022765908
18	0x3c55bee6	0.013046002
19	0xbd09ccc7	-0.033642557
20	0xbd244564	-0.04010524
21	0xbcb3d3a9	-0.021951513
22	0xbd754535	-0.059880454
23	0xbde666e7	-0.11250096
24	0xbdb22912	-0.0869924
25	0xbbcde757	-0.0062836814
26	0xbcdac7c8	-0.026706591
27	0xbcf0e51d	-0.029406125
28	0xbd2731cd	-0.040818978
29	0xbc72998d	-0.014807117

sequential_11/dense_203/BiasAdd/ReadVariableOp/resource f4 [30]
0	0xbd3ceb87	-0.046123054
1	0xbb82bb34	-0.0039896015
2	0xbd81bfc8	-0.063354075
3	0xbd54212f	-0.05178946
4	0xbcaa3063	-0.020775026
5	0x3c0bcfd5	0.008533438
6	0xbd6cc277	-0.057802644
7	0xbdb8419a	-0.089968875
8	0xbd6face9	-0.05851451
9	0xbb6b9bb4	-0.003595096
10	0x3dadd042	0.08486988
11	0xbcee2359	-0.02906959
12	0xbc96f0df	-0.018425403
13	0xbc27b587	-0.010236151
14	0xbd8a9aaa	-0.06767781
15	0xbdab563c	-0.08366057
16	0xbd48c06e	-0.04901164
17	0xbd84674a	-0.06465013
18	0x3cdff961	0.027340593
19	0xbd19e163	-0.03756846
20	0xbce736d3	-0.028224384
21	0xbdac33b9	-0.08408303
22	0x3b89825a	0.0041964473
23	0x3d2b2ea7	0.041792538
24	0xbcccf516	-0.02501921
25	0xbc65bed9	-0.014022552
26	0xbcfdd804	-0.030986793
27	0xbc5c5c14	-0.0134496875
28	0xbc315140	-0.010822594
29	0x3d2124e9	0.03934184

sequential_11/dense_204/BiasAdd/ReadVariableOp/resource f4 [30]
0	0xbd7543e9	-0.059879217
1	0xbd88b079	-0.066742845
2	0xbd5dc661	-0.054144267
3	0x3d065423	0.032795083
4	0x3b86196e	0.004092387
5	0x3cf74a26	0.030186724
6	0xbd1809f2	-0.03711886
7	0xbcb467df	-0.022022186
8	0xbc90b079	-0.017662274
9	0xbc9da291	-0.019242557
10	0x3dbea1b0	0.09308183
11	0xbc7948ed	-0.015215141
12	0x3a8c341c	0.0010696682
13	0x3b2a5e36	0.0025996096
14	0x3c555e47	0.013022966
15	0xbd76fe26	-0.06030097
16	0x3cd4318b	0.02590253
17	0xbc892ffd	-0.016746515
18	0xbdabffaa	-0.083983734
19	0x3c23cc58	0.00999745
20	0xbdcfceb5	-0.10146848
21	0x00000000	0.0
22	0xbb35a740	-0.0027718097
23	0xbdc5b583	-0.09653761
24	0xb98c3360	-0.00026741158
25	0xbdc656d6	-0.096845314
26	0xbd9194de	-0.07108472
27	0xbd1bdf41	-0.03805471
28	0x3d66b3f6	0.056323968
29	0xbc852e95	-0.016257564

sequential_11/dense_205/BiasAdd/ReadVariableOp/resource f4 [30]
0	0x3cc11800	0.023571014
1	0xbc0a33db	-0.008435215
2	0xbcf81c83	-0.030287033
3	0xbd7fc7c8	-0.062446386
4	0xbc9b08b3	-0.018925047
5	0xbd26b6c9	-0.04070166
6	0xbcd6aa50	-0.026204258
7	0xbd2a3c88	-0.041561633
8	0xbd542f1a	-0.051802732
9	0x3c056db6	0.008143833
10	0xbd87e172	-0.06634797
11	0x3c8ccefc	0.017188542
12	0xbd744fe7	-0.059646513
13	0x3b15d1b1	0.0022860582
14	0xbc691033	-0.014225054
15	0xbd10750b	-0.03526787
16	0xbd76f85b	-0.060295444
17	0xbd95b39c	-0.073096484
18	0xbcf30c9b	-0.029669097
19	0xbc6b4aff	-0.014361142
20	0xbb6aca8e	-0.0035826298
21	0xbd8c542e	-0.068519935
22	0xbe08a14a	-0.13342777
23	0x3c7d7774	0.015470374
24	0xbd762cd6	-0.060101353
25	0xbc6dd5e3	-0.014516327
26	0x3dc924d4	0.098214775
27	0x3c011177	0.007877699
28	0x3d40ef35	0.047103126
29	0xbd23b2a2	-0.03996528

sequential_11/dense_206/BiasAdd/ReadVariableOp/resource f4 [30]
0	0xbd991365	-0.07474402
1	0xbcfed1b8	-0.031105861
2	0x3c645c53	0.013938027
3	0xbbe8f232	-0.00710895
4	0xbcb1a8f9	-0.021687018
5	0x3c8b8b1b	0.017034104
6	0xbbaa1240	-0.005190164
7	0xbb1d6ae3	-0.0024020008
8	0xbcae68c6	-0.021290194
9	0x3c99b152	0.01876131
10	0xbd029d64	-0.03188838
11	0x3dc0fe4c	0.09423503
12	0x3d005a7d	0.031336296
13	0xbc2194c6	-0.0098621305
14	0x3dcacea0	0.09902692
15	0x3e144305	0.14478691
16	0x3d9d104a	0.076691225
17	0x00000000	0.0
18	0xbda31ca6	-0.07964449
19	0xbd8f90f0	-0.070100665
20	0x00000000	0.0
21	0xbc1fbd5d	-0.009749738
22	0xbcc23b32	-0.023709867
23	0xbd2fe23a	-0.042940356
24	0xbc8347cc	-0.016025446
25	0x3c069a8b	0.008215557
26	0xbc901176	-0.017586451
27	0xbb8a3e67	-0.0042188647
28	0xbd5d38ba	-0.054009177
29	0xbacebd04	-0.0015772884

sequential_11/dense_207/BiasAdd/ReadVariableOp/resource f4 [30]
0	0x00000000	0.0
1	0x3b99136e	0.0046715057
2	0xbc734fb0	-0.014850542
3	0xbcd4f763	-0.02599687
4	0xbcaaa5ca	-0.020831008
5	0xbc599178	-0.013279311
6	0xbd121bc9	-0.03567103
7	0x00000000	0.0
8	0xbc970fa1	-0.01844007
9	0x3d287ca9	0.04113451
10	0xbd8e837e	-0.06958674
11	0xbc1f2ad6	-0.009714803
12	0xbc2c1a7d	-0.010504362
13	0x3d4e8542	0.050420053
14	0xbc71937d	-0.014744637
15	0xbd2ab8c9	-0.04168013
16	0xbd3cbcfd	-0.04607867
17	0x3d8f7f16	0.070066616
18	0x3cd19cfc	0.025587551
19	0x3bba071d	0.0056771175
20	0x3db90cda	0.09035654
21	0x3c6c547d	0.01442444
22	0xbca60761	-0.02026719
23	0x00000000	0.0
24	0xbb41cb69	-0.0029570705
25	0xbc416eac	-0.011806171
26	0x3d098087	0.03356984
27	0xbd09ec17	-0.03367242
28	0xbce6dc5d	-0.02818125
29	0x3de191f0	0.110141635

sequential_11/dense_208/BiasAdd/ReadVariableOp/resource f4 [30]
0	0x3ce0f79c	0.02746182
1	0x3d2f220f	0.04275709
2	0x3c77f379	0.015133732
3	0x3c2f9310	0.010716215
4	0xbcefff17	-0.029296441
5	0xbd5107c6	-0.051032804
6	0x3cc0c78c	0.023532651
7	0xbc9e1337	-0.019296272
8	0xbcba392b	-0.022732338
9	0xbd0a5b9e	-0.03377878
10	0xbc2b826d	-0.010468108
11	0xbc530675	-0.012879957
12	0xbbf1263a	-0.0073592933
13	0x3cbb2a26	0.022847246
14	0x390c61b4	0.00013387838
15	0xbca6fbce	-0.020383742
16	0xbd2bc745	-0.041938085
17	0x00000000	0.0
18	0x00000000	0.0
19	0x3dca5073	0.09878626
20	0xbb2edfed	-0.0026683763
21	0xbc3c1174	-0.0114787705
22	0xbcbb1057	-0.02283494
23	0xbd0eab16	-0.03483113
24	0xbd01cf5e	-0.0316919
25	0xbca4767b	-0.020076027
26	0xbcedd4eb	-0.029032191
27	0x3b918026	0.0044403253
28	0x3d85fe53	0.06542649
29	0x3b12d8c3	0.0022407032

sequential_11/dense_209/BiasAdd/ReadVariableOp/resource f4 [30]
0	0xbd84c5b6	-0.06483023
1	0x00000000	0.0
2	0xbc9f1c6b	-0.01942273
3	0x3c9c1a77	0.019055588
4	0xbb905ed4	-0.0044058356
5	0xbcac3b18	-0.021024272
6	0x3cadb035	0.021202186
7	0x00000000	0.0
8	0xbd867cf1	-0.065667994
9	0x3c0b1b38	0.008490376
10	0x3bea8fdf	0.007158264
11	0xbc1b1db1	-0.009467528
12	0x3c817ae3	0.015805667
13	0x3d2df0d8	0.042466015
14	0x3d04be3d	0.032407988
15	0xbd2dab9c	-0.042399988
16	0x3d60d306	0.054888748
17	0xbd0af6ed	-0.033926893
18	0x3be8b65b	0.0071018166
19	0xbc842215	-0.016129533
20	0x3c8875a2	0.016657654
21	0xbcd006b3	-0.02539382
22	0x00000000	0.0
23	0xbd21060e	-0.039312415
24	0x3c28f449	0.010312148
25	0xbce80859	-0.028324293
26	0x00000000	0.0
27	0x00000000	0.0
28	0x00000000	0.0
29	0xbc8caf7e	-0.017173525

sequential_11/dense_210/BiasAdd/ReadVariableOp/resource f4 [30]
0	0xbd8aa534	-0.06769791
1	0x00000000	0.0
2	0xbce397f2	-0.027782414
3	0xbd2b495b	-0.041818004
4	0x3d155fc6	0.03646829
5	0xbccd7fa2	-0.025085274
6	0xbb746703	-0.0037292845
7	0xbcfc496d	-0.03079673
8	0xbce76618	-0.028246924
9	0x3d4300c4	0.047608152
10	0xbd5cd1b8	-0.05391094
11	0x3d3c5dfb	0.045988064
12	0x3bf841a5	0.007576185
13	0xbd07cf2b	-0.033156555
14	0xbce0bb52	-0.027433071
15	0xbd3b6def	-0.045759138
16	0xbd83d5ce	-0.064372644
17	0xbc6f1c52	-0.014594154
18	0x00000000	0.0
19	0xbda848f9	-0.082170434
20	0x3c21a962	0.009867044
21	0x00000000	0.0
22	0x3b6acd61	0.0035827982
23	0xbc90342f	-0.017603008
24	0x3df6b12a	0.1204551
25	0xbcb6b7d7	-0.022304459
26	0xbd4092aa	-0.04701487
27	0xbd89c52a	-0.06727059
28	0xbc12864f	-0.0089431545
29	0x3c01a728	0.007913388

sequential_11/dense_211/BiasAdd/ReadVariableOp/resource f4 [30]
0	0x00000000	0.0
1	0xbb24498f	-0.0025068258
2	0x3c1f6d5a	0.009730661
3	0xbc2cb81a	-0.01054194
4	0xbd196ae4	-0.037455454
5	0xbb45aeb7	-0.0030163953
6	0xbbdd0761	-0.0067452644
7	0xbd8b87eb	-0.06813034
8	0x3d1369a2	0.03598941
9	0xbb925e75	-0.0044668266
10	0xbd7c1da6	-0.061551712
11	0xbd753b0c	-0.059870765
12	0xbccf785f	-0.025325952
13	0xbb82e9dd	-0.003995164
14	0xbd0c3241	-0.034227613
15	0xbcd5a634	-0.026080228
16	0xbc9b07d6	-0.018924635
17	0xbc02d609	-0.0079856
18	0xbbc38104	-0.0059663076
19	0x3e0b5954	0.13608295
20	0x00000000	0.0
21	0x3bc1c2f1	0.0059131314
22	0x00000000	0.0
23	0x3d4e49ea	0.05036346
24	0xbbc49a05	-0.005999806
25	0xbd8e9e8d	-0.06963835
26	0xbc5e7c5b	-0.013579453
27	0xbc9b677d	-0.018970245
28	0x00000000	0.0
29	0x00000000	0.0

sequential_11/dense_212/BiasAdd/ReadVariableOp/resource f4 [30]
0	0x3b8a0995	0.004212568
1	0xbbe8628f	-0.007091827
2	0xbb0ae99a	-0.0021196366
3	0x3e05ce56	0.13066992
4	0xbd005de6	-0.03133955
5	0xbb898733	-0.004197025
6	0x3c66b9f6	0.0140824225
7	0x3d9cdb54	0.07659021
8	0xbc625d78	-0.01381623
9	0xbcfcdff1	-0.030868502
10	0x3d7ba4a9	0.06143633
11	0xbc6c3e54	-0.014419157
12	0x3c4c4262	0.012466999
13	0x3e04dee9	0.12975658
14	0x3d8a7f9a	0.06762619
15	0xbc2b134f	-0.010441615
16	0xbd1fcbd1	-0.039012734
17	0x00000000	0.0
18	0xbc950c51	-0.01819435
19	0xbd02943f	-0.03187966
20	0x3e069817	0.13143955
21	0xbbd78d69	-0.0065781367
22	0xbc3359b9	-0.0109466845
23	0xbd2d112d	-0.04225271
24	0x3cb5ff2f	0.022216408
25	0x00000000	0.0
26	0x3ddef55f	0.108866446
27	0xbce75501	-0.028238775
28	0xba205846	-0.00061166694
29	0xbc2a7eb1	-0.010406182

sequential_11/dense_213/BiasAdd/ReadVariableOp/resource f4 [30]
0	0x3d98a8df	0.074540846
1	0xbd299007	-0.04139712
2	0xbd0715c0	-0.032979727
3	0x3bf9c9ad	0.0076229186
4	0x00000000	0.0
5	0xbc0e9d0f	-0.008704438
6	0x3b31da8d	0.0027138323
7	0x3d808887	0.062760405
8	0xbbe3e502	-0.00695479
9	0x3abc11fd	0.0014348623
10	0xbd5615c1	-0.05226684
11	0x3dfb9c91	0.12285722
12	0x3b912839	0.0044298437
13	0xbd1f8284	-0.03894283
14	0x3ce132e1	0.027490081
15	0x00000000	0.0
16	0x3df38c44	0.11891988
17	0x3c570b7e	0.013125299
18	0xbbd3a109	-0.006458406
19	0xbd66bef6	-0.05633446
20	0x00000000	0.0
21	0xbd159bc2	-0.036525495
22	0x3d0756a6	0.03304162
23	0x00000000	0.0
24	0xbc3f9e4a	-0.011695454
25	0xbd6d688d	-0.057961036
26	0xbd1d7db0	-0.038449943
27	0xbc9a5480	-0.01883912
28	0x00000000	0.0
29	0x3c9afa64	0.018918224

sequential_11/dense_214/BiasAdd/ReadVariableOp/resource f4 [30]
0	0x00000000	0.0
1	0x399da4d2	0.00030068174
2	0xbd1d81df	-0.038453933
3	0xbcc1172c	-0.02357062
4	0xbb1b23b9	-0.0023672415
5	0xbac0ce0a	-0.0014709842
6	0xbce5b8cd	-0.028042221
7	0xbc4e010a	-0.01257349
8	0x00000000	0.0
9	0x3e2fd600	0.17171478
10	0x3c732de7	0.014842487
11	0x3c90b6ce	0.017665293
12	0x00000000	0.0
13	0x3cc1c62d	0.023654068
14	0x3c341ada	0.01099273
15	0xbcd88fb1	-0.026435705
16	0x3d22301c	0.039596662
17	0x00000000	0.0
18	0xbd3ae050	-0.045624077
19	0xbcaefc77	-0.021360619
20	0xbce47bc5	-0.02789105
21	0xbd4fa59d	-0.05069505
22	0xbca411d2	-0.020028029
23	0x00000000	0.0
24	0x3dfcc210	0.12341702
25	0x00000000	0.0
26	0x3c97caee	0.018529382
27	0xbcd64103	-0.026154047
28	0xbcc9dc78	-0.02464126
29	0x3d75e282	0.060030468

sequential_11/dense_215/BiasAdd/ReadVariableOp/resource f4 [30]
0	0xbd1f4574	-0.038884595
1	0xbcc9a27d	-0.024613613
2	0x3c60e5e7	0.013726688
3	0x3e0d94c2	0.13826278
4	0x3dd1a079	0.10235686
5	0x00000000	0.0
6	0x00000000	0.0
7	0x3d4605b1	0.04834527
8	0x3d436b73	0.047709893
9	0x3d585da6	0.052823685
10	0x00000000	0.0
11	0x00000000	0.0
12	0x00000000	0.0
13	0x00000000	0.0
14	0xbc8101da	-0.015747953
15	0xbcb8a6e1	-0.022540512
16	0x3e22dd6c	0.15904778
17	0x00000000	0.0
18	0x3d955aec	0.072927326
19	0xbb4c2ecb	-0.003115582
20	0xbb888d77	-0.0041672545
21	0x00000000	0.0
22	0x3d689ae2	0.056788333
23	0xbd923bf0	-0.071403384
24	0x3ca1ed30	0.01976642
25	0x00000000	0.0
26	0x3da800bd	0.08203266
27	0xbe0a440f	-0.13502525
28	0x00000000	0.0
29	0xbca3f877	-0.020015938

sequential_11/dense_216/BiasAdd/ReadVariableOp/resource f4 [30]
0	0x3d80efb8	0.06295723
1	0xbc03154d	-0.008000684
2	0xbd586746	-0.052832864
3	0x3d0f4a95	0.034983236
4	0x00000000	0.0
5	0xbcc1ccdd	-0.023657257
6	0x00000000	0.0
7	0xbd1c7e7d	-0.038206566
8	0x00000000	0.0
9	0xbd9ce83f	-0.07661485
10	0x00000000	0.0
11	0x3dd03217	0.10165804
12	0xbcdf32ef	-0.027245967
13	0xbcb9536d	-0.022622788
14	0x3ddf8e5f	0.10915827
15	0xbe1061b9	-0.14099778
16	0xbc00c26a	-0.007858852
17	0x00000000	0.0
18	0xbc995f4e	-0.018722203
19	0xbbc4c67d	-0.006005107
20	0xbde09f1c	-0.10967848
21	0xbce87884	-0.028377779
22	0x00000000	0.0
23	0xbb3b551e	-0.002858467
24	0x3d8702fa	0.065923646
25	0x00000000	0.0
26	0x3d7ed40a	0.062213935
27	0xbcb45c6f	-0.022016732
28	0xbcfdb732	-0.030971143
29	0xbcbafa57	-0.02282445

sequential_11/dense_217/BiasAdd/ReadVariableOp/resource f4 [30]
0	0xbc87d14d	-0.016579295
1	0x3da328fa	0.079668
2	0x00000000	0.0
3	0x00000000	0.0
4	0x3e2c282d	0.16812201
5	0x00000000	0.0
6	0x3d990547	0.0747171
7	0xbd4c0b92	-0.04981572
8	0x3cdec82d	0.02719506
9	0x00000000	0.0
10	0xbc06f7f3	-0.008237827
11	0x3d8ad793	0.06779399
12	0xbd0efbd1	-0.03490812
13	0xbc973164	-0.018456168
14	0x3e1da528	0.15395033
15	0xbc174b30	-0.009234235
16	0x3e29c66e	0.16579601
17	0x00000000	0.0
18	0xbd194300	-0.03741741
19	0xbd67a238	-0.05655119
20	0xbd1bddde	-0.038053386
21	0x3c8fb7dc	0.017543726
22	0xbcac115e	-0.021004375
23	0x00000000	0.0
24	0xbc631c12	-0.013861673
25	0xbb880412	-0.004150876
26	0xbd806846	-0.062698886
27	0xbd172f81	-0.036910538
28	0x3d68433d	0.05670475
29	0x3b40f5ed	0.0029443458

sequential_11/dense_218/BiasAdd/ReadVariableOp/resource f4 [30]
0	0x3e05e211	0.13074519
1	0xbce629c2	-0.028096084
2	0xbc9bb0b1	-0.019005151
3	0x3db5b91e	0.08873199
4	0xbd1d08a4	-0.03833832
5	0x3dde553a	0.108560994
6	0x00000000	0.0
7	0xbe0b4a9a	-0.13602677
8	0xbbf9c8a3	-0.0076227947
9	0xbc5661e4	-0.013084862
10	0xbc6dbc0b	-0.014510165
11	0x00000000	0.0
12	0x00000000	0.0
13	0x3bc4be3d	0.0060041235
14	0xbc9f0a06	-0.01941396
15	0x3d38fcc3	0.045162927
16	0xbca5fb63	-0.020261472
17	0xbd42ec6c	-0.04758875
18	0xbce63e0f	-0.028105764
19	0xbbc4c79a	-0.0060052397
20	0x3cdfaf33	0.027305221
21	0xbd5f1d3e	-0.054471247
22	0x3e78e1b6	0.24304852
23	0x00000000	0.0
24	0x00000000	0.0
25	0x3dfa964a	0.122356966
26	0xbc9e81d7	-0.019349022
27	0x00000000	0.0
28	0x3aaafde8	0.0013045641
29	0xbd2afb1c	-0.041743383

sequential_11/dense_219/BiasAdd/ReadVariableOp/resource f4 [30]
0	0x3e74f10f	0.23920082
1	0x3cbc2480	0.022966623
2	0xbc292359	-0.010323369
3	0x3e1f7e05	0.15575416
4	0x3e8089fe	0.2510528
5	0xbd6d6702	-0.057959564
6	0x3d41dcd8	0.047329754
7	0x3e243c76	0.16038689
8	0xbe0ac3c1	-0.13551237
9	0xbd42de98	-0.047575563
10	0x3ca02dea	0.019553144
11	0x3be7af0c	0.0070704278
12	0x3e8499fa	0.25898725
13	0xbe32217a	-0.17395583
14	0x3d4e012c	0.050294086
15	0xbd3be00f	-0.045867976
16	0xbd3e3c62	-0.046444304
17	0x3de4e3da	0.11176272
18	0xbdd66519	-0.104685016
19	0xbb9d39eb	-0.004798164
20	0x3d8973e4	0.067115575
21	0xbd77092c	-0.06031148
22	0xbd1922e7	-0.0373868
23	0xbd306e2a	-0.04307381
24	0xbd4d69e6	-0.05014982
25	0xbb6f0d69	-0.00364765
26	0x3db897d9	0.09013338
27	0xbd8f13c0	-0.06986189
28	0x3dfdaec4	0.123868495
29	0xbbc4c8a0	-0.0060053617

sequential_11/dense_220/BiasAdd/ReadVariableOp/resource f4 [5]
0	0x3e6454f6	0.22298035
1	0x3cbcb257	0.023034258
2	0xbe44a1d2	-0.19202355
3	0x3def9bf6	0.11699669
4	0xbf01b10b	-0.5066077

sequential_11/dense_195/MatMul f4 [30, 3]
0	0x3d4e452f	0.050358947
1	0xbf10f996	-0.5663084
2	0x3d773687	0.060354736
3	0x3eaf7f9c	0.34277046
4	0xbcda32de	-0.026635583
5	0x3dc235f2	0.094829455
6	0x3f2e290d	0.6803139
7	0xbe873823	-0.26410016
8	0x3ec0e62f	0.37675616
9	0xbe999985	-0.2999994
10	0x3f14c9e2	0.5812055
11	0x3df3496e	0.1187924
12	0x3ec0629a	0.37575227
13	0x3dc586b8	0.09644836
14	0xbe3aea8e	-0.18253538
15	0x3cc97400	0.024591446
16	0xbe870997	-0.26374504
17	0xbeb268dc	-0.34845626
18	0xbe34b318	-0.17646444
19	0x3dfe73d0	0.12424433
20	0xbe67afab	-0.22625606
21	0xbe857142	-0.2606297
22	0xbe89a9a0	-0.26887226
23	0xbea95d49	-0.33078983
24	0x3e83574c	0.2565254
25	0x3de35848	0.11100823
26	0xbde8071c	-0.11329481
27	0x3f244615	0.64169437
28	0xbe00d172	-0.12579897
29	0x3cb17886	0.021663915
30	0x3f048279	0.51761585
31	0xbe031f1d	-0.12804838
32	0x3e0380ff	0.12842177
33	0xbecccd5c	-0.40000427
34	0xbd664a40	-0.056223154
35	0xbd3f6de8	-0.046735674
36	0xbeac81be	-0.33692735
37	0xbeaa20a4	-0.33228028
38	0xbe89f4ba	-0.26944524
39	0x3e255090	0.16144013
40	0x3e41a18c	0.18909281
41	0xbec2ebab	-0.38070425
42	0xbe9b66ae	-0.30351776
43	0xbe684429	-0.22682251
44	0xbe9741ce	-0.29542392
45	0xbe14e97c	-0.14542192
46	0x3ea92cf4	0.3304211
47	0xbdd499d4	-0.10380903
48	0xbec28950	-0.37995386
49	0x3e70f8ee	0.23532459
50	0x3e80ed60	0.25181103
51	0x3f03a32f	0.51420873
52	0xbf1152e9	-0.56767136
53	0x3dbe0c23	0.09279659
54	0xbea3361b	-0.31877217
55	0xbe908c68	-0.2823212
56	0xbda4c76c	-0.08045849
57	0x3ea65258	0.32484698
58	0xbe83fb9c	-0.257779
59	0xba9b1400	-0.0011831522
60	0x3cc201f0	0.023682564
61	0xbe0030c2	-0.125186
62	0xbed7314e	-0.42029804
63	0x3e650758	0.22366083
64	0x3e4d3b28	0.20042098
65	0xbe820f80	-0.2540245
66	0x3d85eef0	0.06539714
67	0x3ed8d1aa	0.4234746
68	0xbe7c2943	-0.24625115
69	0xbe9f0377	-0.3105733
70	0xbe8a5cba	-0.2702387
71	0xbe40372e	-0.1877105
72	0x3eb52f2c	0.35387552
73	0x3e689984	0.22714812
74	0xbd8dbe64	-0.0692108
75	0xbdc8c0c8	-0.09802395
76	0xbe876678	-0.26445365
77	0xbd4e9ab8	-0.05044052
78	0x3f2f64b7	0.68513054
79	0xbd07be0d	-0.03314023
80	0x3e03ab2a	0.12858263
81	0xbeba3a6d	-0.363727
82	0xbdffa298	-0.12482184
83	0xbe7499cc	-0.23886794
84	0xbf22112f	-0.6330747
85	0x3d9d9652	0.07694687
86	0x3e770f9b	0.24127047
87	0xbf0341ff	-0.5127258
88	0x3ead1010	0.33801317
89	0x3dc7a3e8	0.097480595

sequential_11/dense_196/MatMul f4 [30, 30]
0	0xbe4c422b	-0.19947116
1	0x3da2330c	0.07919893
2	0xbc10decd	-0.008842182
3	0x3eb1b9f9	0.34712198
4	0xbe92aaf5	-0.28646055
5	0x3e9e89cd	0.3096451
6	0x3da70638	0.08155483
7	0x3dd7fb70	0.10546005
8	0x3ca6ebb0	0.020376056
9	0xbe65e10a	-0.22449127
10	0x3e148c1d	0.14506574
11	0x3c121980	0.0089172125
12	0x38344000	4.297495e-05
13	0xbd7fb010	-0.062423766
14	0x3e4be3d2	0.19911125
15	0xbe8fe150	-0.28101587
16	0xbe16f297	-0.14740978
17	0xbed00113	-0.4062582
18	0x3e11529e	0.14191672
19	0x3d75b290	0.059984744
20	0xbc796ea0	-0.015224129
21	0xbe421907	-0.1895486
22	0xbcec0640	-0.028811574
23	0x3e565b3e	0.20933244
24	0x3e369c6c	0.17833108
25	0xbd5513f0	-0.052020967
26	0x3c0876f8	0.008329146
27	0x3e052686	0.13002977
28	0xbd5ff311	-0.054675166
29	0x3e1cbd1b	0.15306513
30	0x3ec76839	0.38946703
31	0xbe69043b	-0.2275552
32	0xbd04add0	-0.032392323
33	0xbdf6eaf7	-0.12056535
34	0x3e8bbd2b	0.2729276
35	0xbb9a1e80	-0.004703343
36	0x3d88f8c0	0.0668807
37	0x3dff0634	0.12452355
38	0x3dfba494	0.1228725
39	0xbe606c48	-0.21916306
40	0x3e2db7ed	0.16964693
41	0x3e28461c	0.16432995
42	0x3e5d2b92	0.21598652
43	0xbe2dc178	-0.16968334
44	0x3e223536	0.15840611
45	0xbe82aeb9	-0.25523928
46	0x3d9d0cb1	0.07668436
47	0x3e023e53	0.12719087
48	0xbe553a59	-0.20823039
49	0xbe68552a	-0.22688738
50	0x3e5ba9e6	0.2145153
51	0xbdfcfb2c	-0.12352595
52	0x3dca2e44	0.09872106
53	0x3e28b01a	0.16473427
54	0x3e21c2a4	0.15796906
55	0xbe1d7b2b	-0.15379016
56	0x3e900b34	0.28133547
57	0x3e22d326	0.15900859
58	0xbda8e516	-0.0824682
59	0x3e118c56	0.1421369
60	0x3e4ae47a	0.1981372
61	0xbd92f238	-0.07175106
62	0xbd95c5a0	-0.073130846
63	0x3e143bd4	0.14475948
64	0xbe80003e	-0.25000185
65	0x3ce1dfd0	0.027572542
66	0x3e907551	0.28214505
67	0x3e7e175a	0.24813595
68	0xbde0b772	-0.109724894
69	0xbe1e8462	-0.15480188
70	0xbe2cb141	-0.16864492
71	0xbe1d25f1	-0.15346505
72	0x3e1f8876	0.155794
73	0x3e1ad57e	0.15120503
74	0xbe59d766	-0.21273574
75	0xbe8b094e	-0.27155536
76	0xbe33402b	-0.17504947
77	0xbe59bec0	-0.21264172
78	0xbe5b7576	-0.21431527
79	0xbe9b07f3	-0.30279502
80	0x3e5a26fe	0.21303937
81	0xbc88cf50	-0.016700417
82	0xbe59c55a	-0.2126669
83	0xbe95475b	-0.29156002
84	0xbe07d06f	-0.13263105
85	0x3ce557f0	0.027996033
86	0x3e9b4e15	0.3033301
87	0xbe6727ae	-0.2257373
88	0x3d55c8c0	0.052193403
89	0xbe9b206b	-0.3029817
90	0xbd7f4ea5	-0.06233086
91	0x3da9c734	0.08289948
92	0x3e1dc12c	0.1540572
93	0xbeb2af5d	-0.34899417
94	0x3e81779d	0.2528657
95	0xbe10fe61	-0.14159538
96	0x3db2aebc	0.08724734
97	0xbe16cab7	-0.14725767
98	0xbe2c3194	-0.16815788
99	0x3e9a6d15	0.30161348
100	0x3e99361a	0.2992409
101	0x3e3f0716	0.18655047
102	0xbd3764e8	-0.044773966
103	0xbe7d72b9	-0.24750794
104	0x3e942435	0.28933874
105	0x3dc5d618	0.09659976
106	0xbea56e35	-0.32310644
107	0xbc817838	-0.015804395
108	0xbd1649f0	-0.036691606
109	0xbca5c0b0	-0.020233482
110	0xbe21dadf	-0.15806149
111	0x3d42aa90	0.047525942
112	0x3df7ce9c	0.120999545
113	0xbdd1ea72	-0.10249795
114	0xbe86001f	-0.26171967
115	0xbe2e7fb3	-0.17040901
116	0x3e4739f1	0.19455697
117	0x3e2bb5ee	0.1676862
118	0x3e6a677a	0.22891036
119	0xbe75a964	-0.23990399
120	0xbd853d70	-0.06505859
121	0x3e0f5057	0.13995491
122	0x3d5473de	0.051868312
123	0xbe7ad125	-0.24493845
124	0x3ce0fbb0	0.027463764
125	0xbe49beee	-0.1970174
126	0xbe9cd954	-0.30634558
127	0x3c848510	0.01617673
128	0xbe3c19cd	-0.18369217
129	0xbe56f094	-0.20990211
130	0xbe72fd23	-0.23729376
131	0xbd177980	-0.036981106
132	0xbe1c4bf1	-0.15263344
133	0x3cf28370	0.02960369
134	0x3e88a3ed	0.26687565
135	0xbe8479db	-0.25874218
136	0x3e070eba	0.13189211
137	0xbd0b2a5a	-0.033975936
138	0xbe2051c2	-0.15656188
139	0xbd970ff8	-0.07376093
140	0xbe82275c	-0.25420654
141	0x3e74764a	0.23873249
142	0x3e2c2558	0.1681112
143	0xbe96d56a	-0.29459697
144	0x3e5e068e	0.21682188
145	0xbc928860	-0.017887294
146	0x3d6280de	0.05529868
147	0x3dd5cfb4	0.10440007
148	0x3d15b7dc	0.036552295
149	0x3d6fa20c	0.05850415
150	0xbe00884a	-0.1255199
151	0xbe0a2d38	-0.13493812
152	0x3d0b7460	0.03404653
153	0xbe5f365c	-0.2179808
154	0x3dd88740	0.10572672
155	0xbd9263f4	-0.07147971
156	0xbe89f0d7	-0.2694156
157	0x3e0ca566	0.1373497
158	0xba35ac00	-0.0006930232
159	0xbd97a604	-0.07404712
160	0xbe83c74e	-0.25737995
161	0x3df51424	0.11966732
162	0x3e6d8692	0.23195866
163	0xbe4a952d	-0.19783469
164	0x3c896900	0.0167737
165	0x3d232930	0.0398342
166	0xbe8608ed	-0.26178685
167	0xbddbac54	-0.10726228
168	0x3e2f4978	0.1711787
169	0x3d97d904	0.07414439
170	0xbe5b699a	-0.21427003
171	0x3d928460	0.07154155
172	0x3c7b49e0	0.015337437
173	0x3d216d58	0.03941092
174	0x3e31fe8c	0.17382258
175	0xbe7104d2	-0.23536995
176	0xbe4c2c66	-0.19938812
177	0x3db904a4	0.09034088
178	0x3e9e2261	0.30885604
179	0xbe59a301	-0.21253587
180	0x3c930ff9	0.017951952
181	0xbd6c3d80	-0.05767584
182	0xbe2c5772	-0.16830233
183	0xbe385e46	-0.18004712
184	0x3de7df70	0.11321914
185	0xbb91fc80	-0.004455149
186	0x3e6dbdde	0.2321696
187	0xbe609b5c	-0.21934265
188	0xbca33640	-0.01992333
189	0x3e1b7684	0.15181929
190	0xbcb8e7e0	-0.022571504
191	0xbe21bf89	-0.15795721
192	0x3dc52ca0	0.09627652
193	0xbe1e7cc1	-0.15477277
194	0xbe372bfe	-0.17887875
195	0x3da66128	0.08124
196	0x3e8161e3	0.25269994
197	0x3e0fdcc2	0.14049056
198	0xbe7ab967	-0.24484788
199	0xbd105110	-0.035233557
200	0x3d7fb8d8	0.06243214
201	0x3e4554de	0.19270656
202	0xbe4d59b4	-0.2005375
203	0x3d5f6358	0.0545381
204	0x3db857c8	0.09001118
205	0x3d84b254	0.06479326
206	0xbe8ba799	-0.27276304
207	0xbd846a84	-0.06465629
208	0x3e4662cb	0.19373624
209	0xbe873af4	-0.26412165
210	0xbdb3b1e1	-0.08774162
211	0xbeb067dd	-0.3445424
212	0x3d27ff30	0.04101485
213	0xbea3a34e	-0.3196053
214	0x3e4f5c4e	0.20250055
215	0xbd4b2268	-0.04959336
216	0xbda9d678	-0.0829286
217	0xbe6f8842	-0.23391822
218	0xbab34600	-0.0013677478
219	0xbd9fcbd4	-0.07802549
220	0x3e60e522	0.21962407
221	0x3e723c52	0.23655823
222	0xbd791e70	-0.060820043
223	0x3d850980	0.064959526
224	0x3de15410	0.11002362
225	0xbd2545d8	-0.04034981
226	0x3e71f2e5	0.23627813
227	0xbe4aa3c8	-0.1978904
228	0x3e1320e2	0.14368013
229	0xbe88af3a	-0.26696187
230	0x3e3b7dc2	0.18309692
231	0xbd4610e8	-0.048355967
232	0xbe9d2d26	-0.30698508
233	0x3e82f9a3	0.25581083
234	0xbe9711db	-0.2950581
235	0x3e5a3e0e	0.21312734
236	0x3e8171b4	0.2528206
237	0x38b21000	8.490682e-05
238	0xbd08179c	-0.03322564
239	0xbdfc3663	-0.12315061
240	0xbddfe4a4	-0.109322816
241	0x3da44ce8	0.08022481
242	0xbdbf3314	-0.09335914
243	0x3e2021c6	0.15637884
244	0x3caa3b80	0.020780325
245	0xbe8302ae	-0.25587982
246	0xbe7e2101	-0.24817277
247	0xbe8d8e2e	-0.27647537
248	0xbe34f328	-0.17670882
249	0x3df3378c	0.11875829
250	0xbe94203a	-0.28930837
251	0x3bb6ad00	0.0055748224
252	0xbc4f4fe0	-0.012653321
253	0xbca04310	-0.019563228
254	0xbe0823a9	-0.13294853
255	0x3e45d05a	0.19317761

sequential_11/dense_197/MatMul f4 [30, 30]
0	0xbee6a1af	-0.4504523
1	0x3e0e3561	0.1388755
2	0xbdcdd77c	-0.10050866
3	0xbe59e64d	-0.21279259
4	0xbdd6d6ca	-0.104901865
5	0xbdd4a368	-0.1038273
6	0xbe29a19a	-0.16565552
7	0xbe3be22f	-0.18348001
8	0xbe27b19e	-0.1637635
9	0xbdd325dd	-0.10309956
10	0xbe93ef08	-0.28893304
11	0xbe2b5120	-0.16730165
12	0x3de2bb0e	0.11070834
13	0x3e7cdd2b	0.24693744
14	0x3e791851	0.24325682
15	0x3ee88d4f	0.4542031
16	0x3e73511a	0.23761407
17	0xbe37c303	-0.17945485
18	0xbe2b71e2	-0.16742662
19	0xbe21f903	-0.15817647
20	0xbd88699c	-0.066607684
21	0xbe34b023	-0.17645316
22	0x3e960db0	0.29307318
23	0x3df4e859	0.11958379
24	0xbe71d055	-0.23614629
25	0x3c5636a0	0.013074547
26	0x3e340390	0.17579484
27	0xbe997fdb	-0.29980358
28	0xbe396e04	-0.18108374
29	0xbcda1590	-0.02662161
30	0x3ccbfaf1	0.024899932
31	0xbdece033	-0.115662
32	0x3dbaa674	0.0911378
33	0xbe8ac49b	-0.27103123
34	0x3dd6242a	0.104561165
35	0xbe808e4a	-0.25108558
36	0x3cbef805	0.023311624
37	0x3d10dd5a	0.035367347
38	0xbd5ae3f8	-0.053440064
39	0x3d2a915c	0.04164253
40	0xbdf3b017	-0.11898821
41	0xbbde46a0	-0.0067833215
42	0x3e7b63cd	0.2454979
43	0xbc8f474b	-0.01749005
44	0xbe191c9b	-0.14952318
45	0xbe7f0fe6	-0.24908409
46	0x3e4580b2	0.19287375
47	0xbdce5a5c	-0.100758284
48	0x3e057f22	0.13036779
49	0x3dd3c0b8	0.103394926
50	0xbde2722a	-0.11056931
51	0xbe3e1b60	-0.1856513
52	0x3e682579	0.22670545
53	0xbe70f565	-0.2353111
54	0xbe8ba729	-0.2727597
55	0xbe1b9085	-0.15191849
56	0xbc2b0899	-0.010439062
57	0xbdd54d80	-0.104151726
58	0x3e1c4682	0.15261272
59	0x3e982be9	0.29721
60	0xbda03bb1	-0.07823885
61	0xbe9a41e6	-0.30128402
62	0xbd9ca760	-0.07649112
63	0x3db1eec7	0.08688121
64	0xbe8617ae	-0.2618994
65	0xbda1c92e	-0.078997
66	0x3e63a295	0.22229989
67	0xbe5c1a5b	-0.21494429
68	0x3e872f63	0.2640334
69	0x3e3eea60	0.18644094
70	0xbe0d54f8	-0.13801944
71	0x3e991251	0.29896787
72	0x3e25ac1d	0.16178937
73	0x3d612080	0.054962635
74	0xbe0d65a7	-0.13808309
75	0xbdef5bbf	-0.11687421
76	0xbe85a502	-0.26102453
77	0x3e7d8992	0.2475951
78	0xbe93ffc8	-0.28906083
79	0x3d684880	0.056709766
80	0x3deab92c	0.114611
81	0xbe1c1282	-0.15241435
82	0x3e092bf8	0.13395679
83	0x3e82c452	0.25540406
84	0x3e98550b	0.29752383
85	0x3e551046	0.20806989
86	0xbe8b1567	-0.27164766
87	0xbe2406e6	-0.16018257
88	0x3dd8c09c	0.10583612
89	0xbe7e4444	-0.24830729
90	0x3e7f0a49	0.24906267
91	0x3d5e7ad4	0.054316357
92	0xbdaf45d6	-0.08558242
93	0x3dfd077b	0.123549424
94	0xbded7b18	-0.11595744
95	0xbdddd4f8	-0.10831636
96	0xbc7b0bb4	-0.015322614
97	0xbe298319	-0.16553916
98	0x3c800be0	0.015630662
99	0x3e9e502c	0.3092054
100	0xbe87c8e3	-0.26520452
101	0xbe71fa6f	-0.23630689
102	0x3e18979b	0.14901583
103	0xbca07142	-0.019585256
104	0xbe1955f9	-0.14974202
105	0xbf02c245	-0.5107768
106	0x3d8383e8	0.064216435
107	0xbdce357c	-0.10068795
108	0x3e84f57b	0.25968537
109	0xbe3b8f09	-0.18316282
110	0x3ec264f6	0.37967652
111	0x3e59814e	0.21240732
112	0x3e363ccb	0.17796628
113	0xbe31ef66	-0.1737648
114	0x3e1d95ac	0.15389127
115	0xbe573622	-0.21016744
116	0x3e139072	0.1441057
117	0x3e83a289	0.25709942
118	0xbe972414	-0.29519713
119	0xbd801414	-0.062538296
120	0xbe6394f3	-0.22224788
121	0xbe760320	-0.2402463
122	0xbe2c0a49	-0.16800798
123	0xbdfbf056	-0.123017
124	0xbc573cc1	-0.013137043
125	0xbe59cf98	-0.21270597
126	0xbe97c104	-0.29639447
127	0x3e1f1076	0.15533623
128	0xbe4a9116	-0.19781908
129	0x37fd2618	3.0177689e-05
130	0xbe9345d5	-0.28764215
131	0x3e3805a3	0.179709
132	0xbe7ef8a7	-0.24899541
133	0xbcbf0c0c	-0.023321174
134	0xbde14802	-0.110000625
135	0xbe218979	-0.15775098
136	0xbe5498e0	-0.20761442
137	0xbe623f3b	-0.22094433
138	0x3e6942f6	0.2277945
139	0xbd0e9318	-0.03480825
140	0x3d9e57d8	0.077315986
141	0xbe2f4524	-0.17116219
142	0xbe8eb7c6	-0.27874583
143	0x3e84efd1	0.25964215
144	0x3d8965a8	0.067088425
145	0xbe6f9e3c	-0.23400205
146	0x3e512de4	0.20427662
147	0xbe3906de	-0.18069026
148	0x3e8955ad	0.26823178
149	0xbe7021c4	-0.2345038
150	0x3d93f217	0.07223909
151	0x3db32912	0.08748068
152	0xbe86e264	-0.26344597
153	0x3c133cb3	0.00898664
154	0xbe83bb28	-0.25728726
155	0x3e3ea37e	0.18617055
156	0x3e8bac58	0.27279925
157	0xbd3ac106	-0.045594238
158	0xbd8d9550	-0.06913245
159	0x3e78b6be	0.2428846
160	0x3d1d9373	0.038470697
161	0xbe93da4b	-0.28877482
162	0xbe52945f	-0.20564412
163	0xbe8c599a	-0.2741211
164	0xbd9d2264	-0.07672575
165	0x3e995d0f	0.2995381
166	0x3e5359da	0.20639744
167	0x3d1759a8	0.036950737
168	0xbd76a428	-0.060215145
169	0xbd7a0dc0	-0.06104827
170	0xbebfa01c	-0.3742684
171	0xbe2f00e0	-0.17090178
172	0x3e729d82	0.23692897
173	0x3ba6d8f4	0.005091781
174	0xbe424b9a	-0.18974152
175	0xbe62171c	-0.22079128
176	0x3e6221f0	0.22083259
177	0x3e9a95c3	0.30192384
178	0x3dde5160	0.10855365
179	0xbe12c0f7	-0.14331423
180	0xbcacd430	-0.021097273
181	0x3dc17648	0.094463885
182	0x3de05064	0.10952833
183	0x3e7254a6	0.23665103
184	0x3d996628	0.07490188
185	0xbdc0466e	-0.093884334
186	0x3e37ff12	0.17968395
187	0xbc283d00	-0.01026845
188	0x3e2d70ba	0.16937533
189	0x3d8d4988	0.068987906
190	0x3e80bb27	0.25142786
191	0x3ea0786f	0.31341884
192	0x3db2a078	0.08722013
193	0xbe84f6d8	-0.25969577
194	0xbdf249be	-0.118304715
195	0xbe21fdbc	-0.15819448
196	0xbd568b10	-0.052378714
197	0x3e28dae0	0.16489744
198	0xbe96195e	-0.2931623
199	0x3e509332	0.2036865
200	0x3e9063a3	0.28201017
201	0xbdaae8c2	-0.08345176
202	0xbe9ebf38	-0.31005263
203	0xbe4bc776	-0.19900307
204	0xbdc494b0	-0.095986724
205	0x3dc43288	0.095799506
206	0x3c51cd20	0.012805253
207	0xbdf2396c	-0.118273586
208	0x3e8aa291	0.27077153
209	0x3e94e4b1	0.29080728
210	0xbe6bd899	-0.23031844
211	0xbdebc4cb	-0.11512145
212	0xbdf603b0	-0.12012422
213	0x3e9f1691	0.31071904
214	0x3d9d4651	0.076794274
215	0xbe3e982a	-0.18612733
216	0xbe61bdbe	-0.22045037
217	0x3c0001d6	0.007812938
218	0x3e0096a4	0.12557465
219	0x3d1e0b27	0.038584854
220	0x3e228cb6	0.1587399
221	0xbbc40dfd	-0.005983113
222	0x3cca9a8b	0.024731895
223	0x3bd673b2	0.0065445537
224	0xbe0d6b25	-0.13810404
225	0x3c8c771b	0.017146638
226	0x3d070530	0.03296393
227	0x3e9d7ac7	0.30757734
228	0x3e6ef7b6	0.23336682
229	0xbe89f0a6	-0.26941413
230	0xbec21e2c	-0.37913644
231	0xbd80a1c0	-0.06280851
232	0x3e6a2f93	0.2286971
233	0xbcde1a18	-0.027112052
234	0x3e2591a6	0.16168842
235	0x3defd680	0.117108345
236	0x3da9e6f7	0.08296006
237	0x3db3f050	0.0878607
238	0x3e89e727	0.26934168
239	0x3e6d75da	0.23189488
240	0xbe4341de	-0.19068095
241	0xbcc4a870	-0.024006099
242	0x3dbd40bc	0.09240863
243	0xbdbe07ce	-0.092788324
244	0xbe906056	-0.28198498
245	0xbe0e4079	-0.13891782
246	0xbe9735b8	-0.29533172
247	0xbe85fd23	-0.2616969
248	0x3e8a8b1f	0.27059266
249	0xbe647f93	-0.2231429
250	0xbdd077fc	-0.10179135
251	0x3deb93e0	0.11502814
252	0xbe199cf5	-0.1500128
253	0x3e7c5cfa	0.24644843
254	0xbe93985b	-0.28827175
255	0x3e842271	0.25807527

sequential_11/dense_198/MatMul f4 [30, 30]
0	0xbe0c41b9	-0.13696946
1	0xbcc2b4e2	-0.023767892
2	0x3ddc838b	0.10767277
3	0x3e2d4009	0.16918959
4	0xbd82fb2c	-0.063955635
5	0x3e4173d4	0.18891841
6	0xbe519b8b	-0.20469491
7	0xbea2d9c9	-0.31806782
8	0xbca79dc0	-0.020460963
9	0xbdf8208e	-0.12115584
10	0xbe3533e4	-0.17695576
11	0xbcf2edba	-0.029654372
12	0xbdfbaaee	-0.122884616
13	0x3e8a10a1	0.26965812
14	0x3e875fe2	0.2644034
15	0xbba274fc	-0.0049577933
16	0xbd14b848	-0.036308557
17	0xbe068eac	-0.13140363
18	0x3df27c1c	0.11840078
19	0x3c36d601	0.011159421
20	0x3e7a462e	0.24440834
21	0xbdd4fe44	-0.1040006
22	0x3dc80b89	0.09767825
23	0x3e056f7a	0.13030806
24	0xbe1ed2c4	-0.15510088
25	0x3e7dd0a0	0.24786615
26	0xbc5355c5	-0.012898867
27	0xbe2821d1	-0.1641915
28	0xbe902c97	-0.2815902
29	0xbe675c62	-0.22593835
30	0xbe9026b8	-0.2815454
31	0xbe3a2346	-0.18177518
32	0xbca16538	-0.019701585
33	0xbdfa8c3e	-0.1223378
34	0x3e027681	0.12740518
35	0x3e358263	0.1772552
36	0x3cf6fb10	0.030149013
37	0x3d6f70ae	0.05845707
38	0xbe9183e6	-0.28420943
39	0xbe6c900c	-0.23101825
40	0xbe488a9f	-0.1958413
41	0xbe4ae492	-0.19813755
42	0xba409bae	-0.0007347417
43	0xbe388ff2	-0.18023661
44	0xbe99fd51	-0.30076078
45	0xbe8b26dd	-0.27178088
46	0xbda78e28	-0.08181411
47	0xbe205584	-0.15657622
48	0x3e9dee09	0.3084567
49	0xbe7b97b9	-0.24569596
50	0x3e59e132	0.21277311
51	0x3e514da5	0.20439775
52	0x3d815c99	0.0631649
53	0x3e236dd9	0.15959872
54	0x3e43b25a	0.19111004
55	0xbcdce8e0	-0.026966512
56	0x3e720f3c	0.23638624
57	0x3e027eb3	0.12743644
58	0x3deff481	0.11716557
59	0x3d8dc6c7	0.069226794
60	0x3e6a2ecb	0.22869413
61	0xbdf292ce	-0.11844407
62	0xbea4e4d6	-0.32205838
63	0x3d3210ac	0.04347293
64	0x3e2095c1	0.15682127
65	0x3e6045c6	0.21901616
66	0x3e62990a	0.22128692
67	0xbe5f13ef	-0.21784948
68	0xbe4d0082	-0.20019725
69	0xbe672476	-0.22572502
70	0x3e8fa66b	0.28056654
71	0x3e6ffeac	0.23436993
72	0x3e82358e	0.25431484
73	0x3e2a571e	0.16634795
74	0xbe8a7662	-0.27043444
75	0xbe710d81	-0.23540308
76	0x3dd3b038	0.103363454
77	0x3bbccb00	0.005761504
78	0x3dae5b9a	0.08513565
79	0x3e2ced19	0.1688732
80	0xbe518753	-0.20461778
81	0xbe89cc44	-0.26913655
82	0x3d3adb67	0.045619395
83	0x3ea45282	0.32094198
84	0x3e76be1a	0.24095955
85	0x3d0852bb	0.033282023
86	0xbd1ec092	-0.038757868
87	0x3d44ad78	0.048016995
88	0x3e84ffd9	0.25976446
89	0x3deaa216	0.11456697
90	0xbdf9750d	-0.12180529
91	0xbe22680f	-0.15860008
92	0x3e742d4c	0.23845404
93	0xbd801cc6	-0.06255488
94	0x3e183368	0.1486336
95	0x3df2e7fb	0.11860653
96	0x3de738b4	0.11290112
97	0x3e85dc08	0.26144433
98	0x3e6e0282	0.23243144
99	0xbdbf0924	-0.09327915
100	0x3e966c81	0.29379657
101	0x3db620d1	0.08892978
102	0xbda76ec6	-0.08175425
103	0xbd5997e8	-0.053123385
104	0xbe6cb062	-0.2311416
105	0x3df601b8	0.120120466
106	0xbe48610b	-0.19568269
107	0xbdbdab78	-0.09261221
108	0x3b284acc	0.0025679348
109	0xbc836d2d	-0.01604327
110	0x3e809215	0.25111452
111	0xbd95c1ff	-0.073123924
112	0xbe271a96	-0.16318735
113	0x3e2f82a4	0.17139679
114	0xbdc4456e	-0.09583555
115	0x3e4c5069	0.19952549
116	0x3e24edd8	0.16106355
117	0xbe15c94e	-0.14627573
118	0x3c9a372c	0.018825136
119	0x3e05fffc	0.13085932
120	0xbe99c241	-0.30031016
121	0xbe010bb9	-0.12602128
122	0xbd79dc90	-0.06100136
123	0x3e8629b9	0.26203707
124	0xbe9f8690	-0.3115735
125	0x3e40dcc6	0.18834218
126	0x3d910370	0.07080734
127	0xbd831fa8	-0.06402522
128	0x3e778496	0.24171671
129	0x3dd06380	0.10175228
130	0x3de88794	0.113539845
131	0xbe537926	-0.20651683
132	0xbe9e3ca3	-0.30905637
133	0x3e6b3076	0.22967705
134	0xbe5a2346	-0.21302518
135	0x3e8fd1e5	0.28089824
136	0xbe52f2d9	-0.20600452
137	0xbe0146c2	-0.12624648
138	0x3d85a660	0.06525874
139	0xbe13ad49	-0.14421572
140	0xbe986019	-0.29760817
141	0xbe3357ba	-0.17513934
142	0xbe331df4	-0.17491895
143	0x3e90cfcf	0.28283545
144	0x3e45bf7e	0.1931133
145	0xbe948918	-0.29010844
146	0x3e9036eb	0.281669
147	0xbe959aeb	-0.29219756
148	0x3d02f1f8	0.03196904
149	0x3d436170	0.047700346
150	0x3e14b01d	0.14520307
151	0x3e840920	0.25788212
152	0xbc51beb8	-0.012801819
153	0xbea1751f	-0.3153467
154	0x3e0642c9	0.13111414
155	0x3ea05ea0	0.31322193
156	0x3e9a29a3	0.3010989
157	0x3e3c4ee2	0.18389466
158	0xbd2e2030	-0.042511165
159	0xbd3f2818	-0.046669096
160	0xb8272076	-3.9846134e-05
161	0xbec3a68b	-0.38213
162	0x3e8f822d	0.28029004
163	0x3e01a850	0.12661862
164	0x3d003c77	0.031307664
165	0xbe6e271c	-0.23257107
166	0xbe692e49	-0.22771563
167	0xbe01aa08	-0.12662518
168	0xbe3db935	-0.18527682
169	0xbe945a3d	-0.28975096
170	0x3d5f2e60	0.054487586
171	0x3dc40d68	0.095728695
172	0xbeb20a3b	-0.3477343
173	0x3e43ebda	0.19132939
174	0xbe8b9073	-0.27258644
175	0x3e36210d	0.17786045
176	0xbe8c74c1	-0.27432826
177	0xbcb8f535	-0.022577861
178	0x3c7ddadd	0.015494076
179	0xbe816fe7	-0.25280687
180	0xbd83d8d4	-0.06437841
181	0xbe81358c	-0.25236166
182	0x3e423ae4	0.18967777
183	0xbea4f288	-0.32216287
184	0xb9cf9000	-0.00039589405
185	0x3e280242	0.16407111
186	0xbd2a3bd0	-0.041560948
187	0xba689e72	-0.0008873708
188	0xbbc57980	-0.006026447
189	0xbe576cb8	-0.21037567
190	0x3e738972	0.237829
191	0xbe119038	-0.14215171
192	0xbd9f2561	-0.07770801
193	0xbd59da50	-0.053186715
194	0x3e227a79	0.15867032
195	0x3e8c6b91	0.27425817
196	0xbeb2f384	-0.34951413
197	0x3e225afc	0.1585502
198	0xbe1f212e	-0.15540001
199	0xbe748ee9	-0.23882641
200	0x3e0e472c	0.13894337
201	0x3e256493	0.16151647
202	0xbe4754b3	-0.19465904
203	0xbe480d2a	-0.19536272
204	0xbbac8280	-0.0052645802
205	0x3d4c2119	0.049836252
206	0xbeb0450f	-0.34427688
207	0xbe4147a0	-0.18874979
208	0xbe2d3948	-0.16916382
209	0xbe603b36	-0.21897587
210	0xbe1ecf9b	-0.15508883
211	0xbd11c7ac	-0.035590813
212	0xbe3d0264	-0.18457943
213	0x3e4c0a28	0.1992575
214	0xbd647fd0	-0.055785954
215	0x3d5c3578	0.05376193
216	0x3e29ae72	0.16570452
217	0x3e671b7d	0.2256908
218	0xbe9f15fc	-0.3107146
219	0xbad0ca00	-0.0015929341
220	0x3e6c0127	0.23047315
221	0x3e0817cf	0.13290332
222	0x3bfd5ec0	0.0077322423
223	0xbe831c12	-0.25607353
224	0x3e64eacf	0.22355197
225	0xbde691bb	-0.11258265
226	0xbe92001b	-0.28515705
227	0xbe65d64a	-0.22445026
228	0xbce723ba	-0.028215278
229	0x3dfb3375	0.12265674
230	0xbe3f2c1f	-0.18669175
231	0x3e8a9012	0.27063042
232	0xbeca0e51	-0.39464048
233	0xbd0b1df6	-0.03396412
234	0xbdef1254	-0.11673418
235	0x3e1021fa	0.14075461
236	0xbe5d21ab	-0.21594875
237	0xbee9cce8	-0.45664144
238	0xbe02a32f	-0.12757562
239	0xbe88272e	-0.26592392
240	0x3e324f2c	0.17413014
241	0x3cf70d66	0.030157756
242	0xbe652415	-0.22377045
243	0xbd885a1d	-0.06657813
244	0xbdc2dca8	-0.09514743
245	0x3e732b60	0.23747015
246	0xbd2a4f20	-0.041579366
247	0xbe3d400d	-0.18481465
248	0xbe8e6366	-0.2781021
249	0x3d003fa0	0.031310678
250	0x3ea6b6b6	0.32561272
251	0xbe9157db	-0.2838734
252	0x3e9b932f	0.3038573
253	0xbe4db925	-0.20090158
254	0x3dd333f2	0.10312642
255	0xbe4aaf88	-0.19793522

sequential_11/dense_199/MatMul f4 [30, 30]
0	0xbc5ead38	-0.013591103
1	0xbe8204be	-0.25394243
2	0xbe45185c	-0.19247574
3	0x3e6adbba	0.22935382
4	0xbe8ef167	-0.2791855
5	0xbd23d6a6	-0.039999627
6	0xbe2d96c7	-0.16952048
7	0xbe50d698	-0.20394361
8	0x3dfee95b	0.12446853
9	0x3e881711	0.26580098
10	0xbe061d0e	-0.13097021
11	0x3dec8fb3	0.11550846
12	0xbe457c73	-0.19285755
13	0x3c93db60	0.018048942
14	0x3d0db6ae	0.034598045
15	0x3d4d786c	0.05016367
16	0x3e4a5f7a	0.19762984
17	0xbe8dea9c	-0.27718055
18	0x3e0e0d8b	0.13872354
19	0x3e5b2076	0.21399102
20	0x3e173ff0	0.14770484
21	0xbddb7638	-0.10715908
22	0xbe918afa	-0.28426343
23	0xbe8a32c6	-0.26991862
24	0x3e50eaea	0.20402113
25	0xbe81b2e7	-0.25331804
26	0xbe844efb	-0.25841507
27	0x3e87479b	0.26421818
28	0xbe84e0ff	-0.25952908
29	0xbe730d7b	-0.23735611
30	0xbe1ccee8	-0.15313303
31	0xbe9b45e8	-0.30326772
32	0xbe008a5a	-0.12552777
33	0xbd6bc499	-0.057560537
34	0xbe832e34	-0.25621188
35	0xbc85f23e	-0.016350862
36	0x3e80e0b9	0.2517145
37	0xbede09f5	-0.43366972
38	0x3e5d8a6b	0.21634834
39	0xbea60a8a	-0.32429916
40	0xbe2e2170	-0.17004943
41	0x3d8500d8	0.064943016
42	0xbe5a10cb	-0.21295469
43	0x3c980d40	0.018561006
44	0xbc8232e0	-0.0158934
45	0xbd1e4fcd	-0.038650323
46	0x3d61a664	0.055090323
47	0x3e956e6b	0.29185805
48	0xbd05fe1b	-0.032713037
49	0x39afc800	0.00033527613
50	0x3e17f8d2	0.14841011
51	0xbe7b1643	-0.24520211
52	0xbdc3b9f6	-0.095569536
53	0x3e5d84c6	0.2163268
54	0x3d1198c0	0.035546064
55	0x3e3b0a9d	0.18265767
56	0xbe706f11	-0.23479868
57	0x3e07f37e	0.13276479
58	0xbe08401a	-0.13305703
59	0x3e75f4f7	0.24019228
60	0x3e1768cf	0.14786075
61	0x3e26a234	0.16272813
62	0x3db4ccde	0.08828138
63	0xbc260df4	-0.010135163
64	0x3c23fc20	0.010008842
65	0xbeac44db	-0.33646283
66	0xbe9a29f5	-0.30110136
67	0xbe867f23	-0.26268873
68	0x3e9f2f61	0.31090835
69	0xbe774f15	-0.24151261
70	0x3e893728	0.26799893
71	0x3e6fe58a	0.23427406
72	0x3de5c2c4	0.11218789
73	0xbdf8450a	-0.12122543
74	0xbe07cd82	-0.13261989
75	0xbe76f727	-0.24117719
76	0xbe032045	-0.12805279
77	0xbdb7cccc	-0.08974609
78	0xbe6b55b0	-0.22981906
79	0x3e88cf71	0.26720765
80	0xbdca6ff8	-0.098846376
81	0x3e8eca21	0.27888587
82	0x3e2c3ace	0.16819307
83	0x3e097828	0.13424742
84	0x3e9d8ec3	0.3077298
85	0xbeb738fb	-0.3578566
86	0xbe9bb846	-0.30414027
87	0xbd195848	-0.037437707
88	0x3e814aa1	0.2525225
89	0xbe333113	-0.17499189
90	0xbcea3687	-0.028590454
91	0x3e88bf50	0.2670846
92	0x3d10ae91	0.03532273
93	0xbd7cbd15	-0.06170376
94	0x3e29c8e0	0.16580534
95	0x3d6d2323	0.057894837
96	0x3c9cbcc3	0.019132977
97	0xbe862c6a	-0.2620576
98	0xbe6c591f	-0.23080872
99	0x3e6ee9a0	0.23331308
100	0x3e9ff5a3	0.31242093
101	0x3e997977	0.29975483
102	0x3de3a406	0.11115269
103	0xbdd25e06	-0.1027184
104	0x3c494d30	0.012286469
105	0x3e63cdca	0.22246471
106	0xbd09659b	-0.033544164
107	0x3e8e9d7b	0.27854523
108	0xbd353db4	-0.044248298
109	0xbe9f2af6	-0.31087464
110	0x3c092f47	0.008373088
111	0xbe3df99a	-0.18552247
112	0xbe29b7f4	-0.16574079
113	0x3d501360	0.050799727
114	0xbdef30b0	-0.11679208
115	0x3ea29dbb	0.31760964
116	0xbe9cea65	-0.3064758
117	0x3e018e44	0.12651926
118	0xbc57e4c4	-0.013177101
119	0x3ead26a8	0.33818555
120	0x3e197314	0.14985305
121	0x3d74e310	0.059786856
122	0x3e3fdca8	0.18736517
123	0xbe6fd000	-0.2341919
124	0x3e1331d2	0.14374474
125	0xbc86e927	-0.016468598
126	0x3e3c118a	0.18366066
127	0xbd7f74d9	-0.062367294
128	0x3e4d8d2a	0.20073381
129	0xbc93e9a3	-0.018055743
130	0xbc630ca3	-0.013857993
131	0xbd4ac610	-0.049505293
132	0xbe57b1bb	-0.21063893
133	0xbdc68d6c	-0.09694943
134	0xbd0509b8	-0.03247997
135	0x3c76ad24	0.015055928
136	0xbe22d13b	-0.15900128
137	0xbd5c0f70	-0.05372566
138	0x3d98c8cb	0.07460173
139	0xbde5d91b	-0.1122305
140	0xbe2f9c9b	-0.17149584
141	0x3e0521af	0.1300113
142	0xbe0004ef	-0.12501882
143	0xbd611bb0	-0.054958045
144	0xbde69eda	-0.11260767
145	0xbe67b8de	-0.22629115
146	0x3def4e7a	0.1168489
147	0xbe90c914	-0.2827841
148	0x3c125ba8	0.008932985
149	0xbd068623	-0.032842766
150	0x3ea1b10a	0.31580383
151	0xbe1e10b6	-0.15436062
152	0xbe856f7d	-0.2606162
153	0xbd1e5681	-0.038656715
154	0x3ca5e5b0	0.020251125
155	0x3e97cb19	0.2964714
156	0x3e9a4b1d	0.30135432
157	0xbebcca0d	-0.36872903
158	0x3e38f7fc	0.18063349
159	0x3e638d05	0.22221763
160	0xbd85fe1f	-0.065426104
161	0x3e0a739a	0.13520661
162	0x3cd02541	0.025408389
163	0xbe6bec39	-0.2303933
164	0x3e1c9eea	0.15294996
165	0xbc942c87	-0.018087639
166	0xbce5d08e	-0.028053548
167	0x3d60ca58	0.05488047
168	0xbdf00ed8	-0.11721581
169	0x3e4ee302	0.20203784
170	0xbe1304e8	-0.1435734
171	0xbdf56c7e	-0.11983584
172	0x3d9ce170	0.07660186
173	0xbddd5e1c	-0.108089656
174	0xbd498d88	-0.04920724
175	0xbe0fb87b	-0.14035217
176	0xbe5b46f3	-0.21413784
177	0x39b3f000	0.00034320354
178	0x3e7959a6	0.24350604
179	0xbcd8d4d1	-0.026468666
180	0xbe43aac8	-0.19108117
181	0x3c10b745	0.008832757
182	0x3e886060	0.26636028
183	0x3d808959	0.06276197
184	0xbe128440	-0.14308262
185	0xbeb9551b	-0.36197743
186	0xbdf864c7	-0.12128597
187	0x3e62a527	0.22133313
188	0x3db36f2c	0.08761439
189	0x3db05419	0.0860979
190	0xbe347a61	-0.17624809
191	0x3e085d24	0.1331678
192	0xbe0c4c7b	-0.1370105
193	0xbe8b661e	-0.27226347
194	0x3dbd09b6	0.09230368
195	0x3e607565	0.21919782
196	0x3e88b796	0.26702565
197	0xbe9585eb	-0.29203734
198	0xbdbf76c3	-0.09348824
199	0x3d6c30c1	0.057663683
200	0x3e8d10b2	0.275518
201	0x3d59a50e	0.053135924
202	0xbe1343ea	-0.14381376
203	0x3e6728ca	0.22574154
204	0xbcca2840	-0.024677396
205	0xbccfdeed	-0.025374854
206	0x3c495344	0.0122879185
207	0x3e8b8ed1	0.27257398
208	0xbdcc210f	-0.09967243
209	0x3dc0b621	0.09409738
210	0xbba6ed3b	-0.005094198
211	0x3e3607b7	0.1777638
212	0x3c225ce2	0.00990984
213	0xbdc1a7af	-0.09455811
214	0xbdf61e72	-0.12017526
215	0xbdab3e60	-0.083615065
216	0xbd93d9ee	-0.07219301
217	0xbe8a87de	-0.27056783
218	0x3e2fdbba	0.17173663
219	0xbe493fec	-0.1965329
220	0x3d8094b2	0.062783614
221	0xbe40c237	-0.18824087
222	0xbcdd23c1	-0.026994588
223	0xbe8c7d67	-0.27439424
224	0x3e98ae49	0.2982047
225	0xbe89fb57	-0.2694957
226	0xbd94f9a2	-0.07274176
227	0x3e9aeb45	0.3025762
228	0x3e72aae5	0.23698004
229	0xbe8305fc	-0.25590503
230	0xbea0b8fd	-0.31391135
231	0x3e2d23fa	0.16908255
232	0xbcf455b0	-0.029826015
233	0xbe1e4454	-0.15455753
234	0x3e847217	0.25868294
235	0x3db93881	0.090439804
236	0xbc850b50	-0.016240746
237	0x3e1076b8	0.14107788
238	0x3e28421d	0.1643147
239	0xbe99c70d	-0.30034676
240	0xbe2320a0	-0.15930414
241	0x3dd3ed6b	0.10348018
242	0x3e06b448	0.1315471
243	0xbd89c765	-0.067274846
244	0xbe551c9f	-0.208117
245	0x3e7eecf4	0.24895078
246	0xbdaf9aa0	-0.08574414
247	0xbe671d9f	-0.22569893
248	0x3d8d0bf4	0.068870455
249	0xbe15edea	-0.14641538
250	0xbe2a8b1e	-0.16654631
251	0xbe8c19f3	-0.27363548
252	0xbe8f880c	-0.28033483
253	0x3e575d5e	0.2103171
254	0x3d929058	0.07156438
255	0xbea5ad37	-0.32358715
